…
&lt;span class="n"&gt;model&lt;/span&gt;&lt;span class="o"&gt;.&lt;/span&gt;&lt;span class="n"&gt;save&lt;/span&gt;&lt;span class="p"&gt;(&lt;/span&gt;&lt;span class="n"&gt;file_name&lt;/span&gt;&lt;span class="o"&gt;+&lt;/span&gt;&lt;span class="s1"&gt;&amp;#39;.h5&amp;#39;&lt;/span&gt;&lt;span class="p"&gt;)&lt;/span&gt;
&lt;/pre&gt;&lt;/div&gt;

    &lt;/div&gt;
&lt;/div&gt;
&lt;/div&gt;

&lt;div class="output_wrapper"&gt;
&lt;div class="output"&gt;


&lt;div class="output_area"&gt;

    &lt;div class="prompt"&gt;&lt;/div&gt;


&lt;div class="output_subarea output_stream output_stdout output_text"&gt;
&lt;pre&gt;_________________________________________________________________
Layer (type)                 Output Shape              Param #   
=================================================================
input_3 (InputLayer)         (None, 256, 256, 3)       0         
_________________________________________________________________
block1_conv1 (Conv2D)        (None, 256, 256, 64)      1792      
_________________________________________________________________
block1_conv2 (Conv2D)        (None, 256, 256, 64)      36928     
_________________________________________________________________
block1_pool (MaxPooling2D)   (None, 128, 128, 64)      0         
_________________________________________________________________
block2_conv1 (Conv2D)        (None, 128, 128, 128)     73856     
_________________________________________________________________
block2_conv2 (Conv2D)        (None, 128, 128, 128)     147584    
_________________________________________________________________
block2_pool (MaxPooling2D)   (None, 64, 64, 128)       0         
_________________________________________________________________
block3_conv1 (Conv2D)        (None, 64, 64, 256)       295168    
_________________________________________________________________
block3_conv2 (Conv2D)        (None, 64, 64, 256)       590080    
_________________________________________________________________
block3_conv3 (Conv2D)        (None, 64, 64, 256)       590080    
_________________________________________________________________
block3_pool (MaxPooling2D)   (None, 32, 32, 256)       0         
_________________________________________________________________
block4_conv1 (Conv2D)        (None, 32, 32, 512)       1180160   
_________________________________________________________________
block4_conv2 (Conv2D)        (None, 32, 32, 512)       2359808   
_________________________________________________________________
block4_conv3 (Conv2D)        (None, 32, 32, 512)       2359808   
_________________________________________________________________
block4_pool (MaxPooling2D)   (None, 16, 16, 512)       0         
_________________________________________________________________
block5_conv1 (Conv2D)        (None, 16, 16, 512)       2359808   
_________________________________________________________________
block5_conv2 (Conv2D)        (None, 16, 16, 512)       2359808   
_________________________________________________________________
block5_conv3 (Conv2D)        (None, 16, 16, 512)       2359808   
_________________________________________________________________
block5_pool (MaxPooling2D)   (None, 8, 8, 512)         0         
_________________________________________________________________
sequential_3 (Sequential)    (None, 2)                 8389378   
=================================================================
Total params: 23,104,066
Trainable params: 8,389,378
Non-trainable params: 14,714,688
_________________________________________________________________
Found 2000 images belonging to 2 classes.
Found 800 images belonging to 2 classes.
Epoch 1/30
 - 17s - loss: 0.8113 - acc: 0.5922 - val_loss: 0.6723 - val_acc: 0.5150
Epoch 2/30
 - 15s - loss: 0.7090 - acc: 0.5438 - val_loss: 0.6130 - val_acc: 0.7887
…
&lt;p&gt;入力と出力が決まったので、あとは工夫しだい。
今回は適当に、こんなネットワークでやってみます。&lt;/p&gt;
&lt;div class="highlight"&gt;&lt;pre&gt;&lt;span&gt;&lt;/span&gt;&lt;code&gt;&lt;span class="err"&gt;____________________________________________________________________________________________________&lt;/span&gt;
&lt;span class="err"&gt;Layer (type)                     Output Shape          Param #     Connected to                     &lt;/span&gt;
&lt;span class="err"&gt;====================================================================================================&lt;/span&gt;
&lt;span class="err"&gt;input_1 (InputLayer)             (None, 3, 4, 11)      0                                            &lt;/span&gt;
&lt;span class="err"&gt;____________________________________________________________________________________________________&lt;/span&gt;
&lt;span class="err"&gt;input_2 (InputLayer)            (None, 2, 3, 2)       0                                            &lt;/span&gt;
&lt;span class="err"&gt;____________________________________________________________________________________________________&lt;/span&gt;
&lt;span class="err"&gt;flatten_1 (Flatten)              (None, 132)           0           input_1[0][0]                    &lt;/span&gt;
&lt;span class="err"&gt;____________________________________________________________________________________________________&lt;/span&gt;
&lt;span class="err"&gt;flatten_2 (Flatten)             (None, 12)            0           input_2[0][0]                   &lt;/span&gt;
&lt;span class="err"&gt;____________________________________________________________________________________________________&lt;/span&gt;
&lt;span class="err"&gt;concatenate_1 (Concatenate)      (None, 144)           0           flatten_1[0][0]                  &lt;/span&gt;
&lt;span class="err"&gt;                                                                   flatten_2[0][0]                 &lt;/span&gt;
&lt;span class="err"&gt;____________________________________________________________________________________________________&lt;/span&gt;
&lt;span class="err"&gt;dense_1 (Dense)                 (None, 128)           18560       concatenate_1[0][0]              &lt;/span&gt;
&lt;span class="err"&gt;____________________________________________________________________________________________________&lt;/span&gt;
&lt;span class="err"&gt;dense_2 (Dense)                 (None, 128)           16512       dense_1[0][0]                   &lt;/span&gt;
&lt;span class="err"&gt;____________________________________________________________________________________________________&lt;/span&gt;
&lt;span class="err"&gt;dense_3 (Dense)                 (None, 128)           16512       dense_2[0][0]                   &lt;/span&gt;
&lt;span class="err"&gt;____________________________________________________________________________________________________&lt;/span&gt;
&lt;span class="err"&gt;dense_4 (Dense)                 (None, 128)           16512       dense_3[0][0]                   &lt;/span&gt;
&lt;span class="err"&gt;____________________________________________________________________________________________________&lt;/span&gt;
&lt;span class="err"&gt;dense_5 (Dense)                 (None, 128)           16512       dense_4[0][0]                   &lt;/span&gt;
&lt;span class="err"&gt;____________________________________________________________________________________________________&lt;/span&gt;
&lt;span class="err"&gt;dense_6 (Dense)                 (None, 128)           16512       dense_5[0][0]                   &lt;/span&gt;
&lt;span class="err"&gt;____________________________________________________________________________________________________&lt;/span&gt;
&lt;span class="err"&gt;dense_7 (Dense)                 (None, 97)            12513       dense_6[0][0]                   &lt;/span&gt;
&lt;span class="err"&gt;====================================================================================================&lt;/span&gt;
&lt;span class="err"&gt;Total params: 113,633&lt;/span&gt;
&lt;span class="err"&gt;Trainable params: 113,633&lt;/span&gt;
&lt;span class="err"&gt;Non-trainable params: 0&lt;/span&gt;
&lt;span class="err"&gt;____________________________________________________________________________________________________&lt;/span&gt;
…
